7-extra enhancement/cnn_gru_model_20250815_150610_best.pth (torch, 515625 bytes, 103 tensors)

cnn_features.0.weight f4 [32, 1, 3, 3]
0	0xbe046549	-0.12929262
1	0x3e5bcafc	0.21464151
2	0x3e4aaa30	0.19791484
3	0x3e37fa63	0.17966609
4	0x3e269816	0.16268954
5	0xbd239c26	-0.039943837
6	0xbd300d5e	-0.042981498
7	0xbdff92fa	-0.124792054
8	0xbe6a940d	-0.2290804
9	0x3cfba5ee	0.03071877
10	0xbd254cbb	-0.04035638
11	0x3cf7f27c	0.030266993
12	0x3df82da3	0.121180795
13	0x3d097fb2	0.033569045
14	0x3d4696af	0.048483547
15	0x3eb6968f	0.35661742
16	0x3e87ac55	0.26498666
17	0x3ed04643	0.40678605
18	0xbe9c0233	-0.30470428
19	0xbcd8da34	-0.026471235
20	0xbb257976	-0.0025249398
21	0x3d5e75c7	0.05431154
22	0xbd2b3d71	-0.041806642
23	0xbe512a69	-0.20426334
24	0xbd8e370d	-0.06944094
25	0xbcd2ab0f	-0.025716333
26	0xbe7d558a	-0.24739662
27	0x3e1ad718	0.15121114
28	0x3e1bde62	0.15221551
29	0xbcb139e0	-0.021634042
30	0xbe10ad07	-0.14128505
31	0x3ca9caea	0.02072664
32	0xbe882323	-0.26589307
33	0x3e9034d1	0.28165296
34	0x3da229f5	0.07918159
35	0xbc9303cc	-0.017946146
36	0xbcb5ac51	-0.022176893
37	0xbd646d16	-0.055768095
38	0x3d0822c0	0.033236265
39	0x3d80439b	0.06262895
40	0xbe20d01b	-0.15704386
41	0xbe93906b	-0.2882112
42	0x3e0444c5	0.12916858
43	0x3e0854c6	0.13313589
44	0x3e45b046	0.19305524
45	0xbeb0a165	-0.34498134
46	0xbea71d0e	-0.32639354
47	0xbda3f1df	-0.080051176
48	0xbdb1abee	-0.08675371
49	0xbd5887ae	-0.05286377
50	0x3b32a143	0.0027256764
51	0xbe2e7539	-0.17036904
52	0xbd8176c4	-0.06321481
53	0x3e08296f	0.13297056
54	0xbe1ef3e4	-0.15522724
55	0xbc8302e3	-0.015992587
56	0x3dcca92c	0.099932045
57	0xbe5e9558	-0.21736658
58	0xbdbc104b	-0.09182795
59	0x3e9aa4ec	0.3020395
60	0xbde7ff20	-0.11327958
61	0x3e02ed87	0.12785922
62	0xbbc2a237	-0.0059397477
63	0xbe0a7fb3	-0.13525276
64	0xbd79095a	-0.060799934
65	0xbe2c62c3	-0.1683455
66	0xbec874b2	-0.3915153
67	0xbed5d8d9	-0.41767004
68	0xbec18472	-0.3779636
69	0xbd2e0ef4	-0.04249473
70	0x3d7c3d3d	0.06158184
71	0xbcca22cf	-0.024674801
72	0xbe7b3603	-0.24532323
73	0x3d313030	0.043258846
74	0x3e4a4978	0.19754589
75	0xbe740428	-0.2382971
76	0x3d30ecf1	0.043194715
77	0x3e3b7fdf	0.18310498
78	0x3e205ef9	0.15661229
79	0xbe280440	-0.16407871
80	0xbbb9020b	-0.0056459955
81	0xbe2fade7	-0.17156182
82	0xbe14f152	-0.14545181
83	0x3e204861	0.1565261
84	0x3d1a1fd2	0.037628002
85	0xbd589fdf	-0.05288684
86	0x3e82dc84	0.25558865
87	0xbcf397ac	-0.029735409
88	0x3e7c72c1	0.2465315
89	0xbd8a7114	-0.06759849
90	0xbd88dd7b	-0.06682869
91	0x3e4cbc55	0.19993718
92	0xbe144170	-0.14478087
93	0x3d945926	0.07243566
94	0x3e1c2869	0.1524979
95	0xbe2bb3e4	-0.16767842
96	0x3e14d7f6	0.14535508
97	0xbd8655ab	-0.065593086
98	0xbcd1ecaa	-0.025625546
99	0x3dedf195	0.11618344
100	0xbe5339b0	-0.20627475
101	0xbe2b9788	-0.16757023
102	0xbe085f2f	-0.1331756
103	0xbd9e30e6	-0.077241704
104	0xbd966a78	-0.07344526
105	0x3eae768e	0.34074825
106	0x3ad2132b	0.0016027441
107	0x3e1dd1c4	0.1541205
108	0x3d649888	0.055809528
109	0x3d04125f	0.032244083
110	0xbe1924fa	-0.14955512
111	0x3d208096	0.03918513
112	0xbdb4ef47	-0.08834701
113	0xbe0730ea	-0.13202253
114	0xbe569cbc	-0.20958227
115	0x3e045e98	0.1292671
116	0x3e1e29ca	0.15445629
117	0xbe876cb9	-0.26450136
118	0x3cfcb698	0.030848786
119	0x3e433598	0.19063413
120	0xbd9fd480	-0.07804203
121	0xbdad9c67	-0.08477097
122	0x3e22393f	0.1584215
123	0xbe33c733	-0.17556457
124	0x3e3807a9	0.17971672
125	0xbdf1a014	-0.117981106
126	0x3e20985c	0.1568312
127	0x3e461efd	0.19347759
128	0x3d2b9d30	0.041897953
129	0x3ea34a1f	0.31892487
130	0x3dc3f67a	0.09568496
131	0x3e09e800	0.13467407
132	0x3de1a7f5	0.110183634
133	0xbddc1071	-0.107453234
134	0xbdde1ac7	-0.10844951
135	0x3e22ae69	0.15886845
136	0xbd91dbd2	-0.071220055
137	0xbde1ff3a	-0.11035009
138	0x3d75cb69	0.06000844
139	0x3e2dba94	0.16965705
140	0xbe282e31	-0.1642387
141	0x3d8bb8c5	0.06822351
142	0xbe16f133	-0.14740448
143	0xbece7a9b	-0.40327916
144	0x3cadb6dd	0.02120536
145	0x3d51d421	0.051227693
146	0x3e017e1c	0.12645763
147	0x3e4da374	0.20081884
148	0x3eb01fd8	0.34399295
149	0x3d7a337c	0.061084256
150	0x3e077c39	0.13230981
151	0x3d3ff9ac	0.046868965
152	0x3b092828	0.0020928476
153	0x3d882ba9	0.066489525
154	0xbcf6eba9	-0.030141668
155	0xbd551fd1	-0.052032296
156	0x3d81cc4a	0.06337793
157	0xbe79b294	-0.24384528
158	0x3e06705c	0.13128799
159	0xbe6cf794	-0.23141319
160	0xbdfe412c	-0.12414774
161	0x3e921cbb	0.28537545
162	0x3d8a75d1	0.06760753
163	0xbda1e6b1	-0.07905329
164	0x3d9b16ea	0.0757273
165	0x3cb103eb	0.021608314
166	0xbe83a31c	-0.2571038
167	0xbe124ff4	-0.14288312
168	0x3e4858b8	0.19565094
169	0x3e87a7e2	0.26495272
170	0x3ec6bfae	0.38818115
171	0xbe999807	-0.299988
172	0xbe59d420	-0.21272326
173	0xbd27932a	-0.04091183
174	0x3e611340	0.2198
175	0x3d850a1f	0.06496071
176	0x3dddf1af	0.10837113
177	0xbc9a8b66	-0.018865298
178	0x3e11e1fa	0.1424636
179	0xbd1d7ac4	-0.038447157
180	0xbdde0ca9	-0.108422585
181	0xbcc961ad	-0.024582708
182	0xbdc41996	-0.09575193
183	0xbe69598a	-0.22788063
184	0x3e261cab	0.16221873
185	0x3d77681d	0.060402025
186	0xbe8db5c2	-0.27677733
187	0xbe63fc65	-0.2226425
188	0x3c570d1d	0.013125685
189	0xbe284311	-0.16431834
190	0x3e5a2ee0	0.21306944
191	0xbd138322	-0.03601373
192	0xbe1d1e92	-0.15343693
193	0x3e433f07	0.19067012
194	0x3c909155	0.017647425
195	0xbde9d14f	-0.114168756
196	0x3e83a2e3	0.2571021
197	0xbe3e677c	-0.18594164
198	0xbe68cedb	-0.22735159
199	0xbe3afdf6	-0.18260941
200	0x3db1f229	0.086887665
201	0xbece81c2	-0.40333372
202	0xbda0562f	-0.07828938
203	0x3c6341c9	0.013870665
204	0xbe885b6e	-0.26632255
205	0x3d4a1de5	0.049344916
206	0x3dcc4de8	0.09975797
207	0x3e063edb	0.13109915
208	0xbce0976b	-0.027415952
209	0xbe1740ca	-0.14770809
210	0xbc9daa83	-0.019246345
211	0x3e9da553	0.30790195
212	0x3b37087c	0.002792864
213	0xbe7f1551	-0.24910475
214	0x3e1e6533	0.15468292
215	0x3c47e1d4	0.012199838
216	0x3e87f80a	0.26556426
217	0x3c031147	0.007999725
218	0x3e8b89f6	0.27253693
219	0xbe595869	-0.21225132
220	0x3dce26fb	0.10066029
221	0xbe25d648	-0.16195023
222	0xbe077940	-0.13229847
223	0xbda6fd6d	-0.08153806
224	0xbde2710e	-0.1105672
225	0x3d713986	0.05889275
226	0x3e118542	0.1421099
227	0xbda22491	-0.07917131
228	0xbe3448a7	-0.1760584
229	0xbe4ca6a4	-0.19985443
230	0x3e5cf082	0.21576121
231	0x3eeb0d92	0.4590879
232	0x3e58bbcc	0.21165389
233	0x3ec27f98	0.3798797
234	0xbe266d51	-0.16252638
235	0x3e3b2473	0.18275623
236	0xbdc8d271	-0.098057635
237	0xbe6c7522	-0.23091558
238	0x3e6b7e03	0.22997288
239	0x3cdf016a	0.027222354
240	0xbe7f02bb	-0.24903385
241	0xbdbd39b0	-0.09239519
242	0x3e83cd1a	0.25742418
243	0x3d2899d5	0.04116233
244	0xbe3ae9a7	-0.18253194
245	0xbdd925a0	-0.106028795
246	0x3e4e08dc	0.20120567
247	0xbc0e408c	-0.008682381
248	0x3e2ad2bf	0.16681956
249	0x3d28c66b	0.04120485
250	0x3d00d697	0.03145465
251	0x3e985cde	0.29758352
252	0xbdb0e9c8	-0.0863834
253	0xbcca0940	-0.024662614
254	0xbdcf2519	-0.10114498
255	0xbc1d1fd2	-0.009590106

cnn_features.0.bias f4 [32]
0	0x3e07adb0	0.1324985
1	0x3d54d8aa	0.05196444
2	0xbde48ada	-0.11159296
3	0x3d037e18	0.032102674
4	0xbc8f2b4f	-0.017476706
5	0xbd70ff50	-0.058837235
6	0xbe2f1c86	-0.17100725
7	0xbd55ad69	-0.05216733
8	0x3de033a7	0.10947352
9	0x3e147218	0.14496648
10	0x3d3a9604	0.045553222
11	0x3d64c1c1	0.05584884
12	0x3e315ae0	0.17319822
13	0x3dc7d6df	0.0975778
14	0x3e23fa2f	0.16013406
15	0xbd994827	-0.07484465
16	0xbd7942e2	-0.0608548
17	0x3e1dc730	0.15408015
18	0x3e0259a1	0.12729503
19	0xbe0fd94d	-0.14047737
20	0x3d8739b7	0.06602805
21	0x3db60957	0.088885
22	0x3d5c0a80	0.05372095
23	0x3d92b195	0.07162777
24	0x3de84742	0.11341716
25	0xbd3a80c1	-0.045532946
26	0x3d589673	0.052877855
27	0xbe263839	-0.16232385
28	0xbd26d693	-0.040731978
29	0xbe1774d7	-0.14790665
30	0x3db0800a	0.086181715
31	0xbc65a156	-0.014015516

cnn_features.1.weight f4 [32]
0	0x3ee6f2b1	0.45107034
1	0x3eae3f9a	0.340329
2	0x3f152e2e	0.5827359
3	0x3f24d97f	0.6439437
4	0x3ea89783	0.32928094
5	0x3eebef6e	0.46081108
6	0x3f435bba	0.7631184
7	0x3ed87041	0.42273143
8	0x3f02d3d3	0.5110447
9	0x3f17464f	0.5909166
10	0x3edae367	0.4275162
11	0x3ecbfe38	0.3984239
12	0x3f060810	0.5235605
13	0x3f540f6a	0.8283602
14	0x3f00e447	0.50348324
15	0x3f0b3bcd	0.54388124
16	0x3ed86e1d	0.4227151
17	0x3f1a845e	0.60358226
18	0x3f146ad4	0.57975507
19	0x3f0968a3	0.5367529
20	0x3ed9227f	0.4240913
21	0x3f182fcc	0.5944793
22	0x3eba3f8e	0.36376613
23	0x3f3a2a3e	0.72720706
24	0x3ed62866	0.41827697
25	0x3f056926	0.5211357
26	0x3f3c2854	0.73499036
27	0x3f10f1e8	0.5661912
28	0x3eb2f4f6	0.34952515
29	0x3e97066d	0.2949709
30	0x3f5d3fee	0.86425674
31	0x3f037504	0.51350427

cnn_features.1.bias f4 [32]
0	0xbe310f1f	-0.17290924
1	0xbe695c64	-0.2278915
2	0x3dca4361	0.09876133
3	0x3d93a9c8	0.072101176
4	0x3e6d7de4	0.23192555
5	0x3e179d3a	0.14806071
6	0x3d1f7faf	0.038940128
7	0xbe273e33	-0.16332321
8	0xbe18f9f3	-0.14939098
9	0x3dfa8b7e	0.12233637
10	0xbe15fec1	-0.14647962
11	0x3e659b19	0.22422446
12	0x3dab2e6c	0.08358464
13	0x3c76399c	0.015028384
14	0xbe2fb57c	-0.17159075
15	0xbe08a858	-0.13345468
16	0xbe294e99	-0.16533889
17	0x3e009882	0.12558177
18	0xbd948f9e	-0.07253955
19	0x3dda2604	0.10651782
20	0xbe5303da	-0.20606938
21	0xb9482756	-0.0001908814
22	0xbe666d71	-0.22502686
23	0xbe0476a7	-0.12935887
24	0x3e33c185	0.1755429
25	0x3e1c630d	0.1527216
26	0x3d8d6348	0.06903702
27	0xbda54b59	-0.08071012
28	0x3e78785d	0.24264665
29	0x3e81e28b	0.2536815
30	0xbd41c5c0	-0.04730773
31	0xbe0b1c28	-0.1358496

cnn_features.1.running_mean f4 [32]
0	0xc102c5c7	-8.1732855
1	0xc25ae73e	-54.725822
2	0x42173fd3	37.81233
3	0xc123ef34	-10.245899
4	0xbf8ad690	-1.0846729
5	0x422bd037	42.953335
6	0x403acb37	2.9186532
7	0x42887e03	68.24612
8	0x3fa31425	1.2740523
9	0xc12014ce	-10.005079
10	0xc08df7f9	-4.43652
11	0x4007154a	2.1106744
12	0x40f481cf	7.640846
13	0x40e433a6	7.1313047
14	0xc211c126	-36.43862
15	0x4198bfe4	19.093697
16	0xc22d1f19	-43.28037
17	0x40c2e82b	6.090841
18	0xc1b8796e	-23.059292
19	0x403d3d0d	2.9568512
20	0x41fc0c52	31.506016
21	0xbf69e516	-0.9136518
22	0x421f1926	39.77456
23	0xc0e98165	-7.297045
24	0x402b0460	2.672142
25	0xc230bc53	-44.18391
26	0x40bbd26a	5.8694353
27	0xc1ab200c	-21.390648
28	0x424ea8b2	51.66474
29	0x402fcff3	2.7470672
30	0xbfb13426	-1.384404
31	0xc1f9d15c	-31.227226

cnn_features.1.running_var f4 [32]
0	0x41e0cb6b	28.099325
1	0x43cd4a0d	410.57852
2	0x4338627e	184.38474
3	0x41c57e15	24.686563
4	0x41813894	16.152626
5	0x437efa0a	254.97672
6	0x4109add6	8.60494
7	0x441bcb72	623.17883
8	0x40b00169	5.500172
9	0x4194e9ba	18.614124
10	0x40a9d047	5.3066745
11	0x41c05094	24.039345
12	0x4115b122	9.355745
13	0x413ce9d7	11.80709
14	0x433b23e4	187.1402
15	0x427b7814	62.867264
16	0x437393ec	243.57782
17	0x4101fa93	8.123675
18	0x42ca401e	101.12523
19	0x41776a06	15.463385
20	0x43051344	133.07526
21	0x404e1be8	3.2204533
22	0x4357b0ba	215.69034
23	0x412f975a	10.974451
24	0x41a54cf9	20.662584
25	0x438e0893	284.067
26	0x413890b4	11.535328
27	0x4285a952	66.8307
28	0x43af2fd3	350.37363
29	0x415c41ee	13.766096
30	0x41d0c028	26.093826
31	0x43070217	135.00816

cnn_features.4.0.weight f4 [32, 1, 3, 3]
0	0xbd232070	-0.039825857
1	0x3dd532db	0.104100905
2	0xbe2a9fbb	-0.16662495
3	0x3e58661a	0.21132699
4	0x3e8d1ae1	0.2755957
5	0xbe3fab02	-0.18717578
6	0xbc4e16c9	-0.012578675
7	0xbdc57a4b	-0.09642466
8	0x3d4931c9	0.049119744
9	0xbce98c87	-0.028509391
10	0xbe21f4e5	-0.15816076
11	0x3ddfdf4f	0.109312646
12	0xbe11116a	-0.14166799
13	0xbdadaecc	-0.084806055
14	0xbdf10f70	-0.117705226
15	0x3e35d938	0.17758644
16	0x3e90ebd1	0.28304914
17	0x3e8d9597	0.2765319
18	0xbe474555	-0.19460042
19	0x3c33ec8a	0.010981688
20	0xbdf969e3	-0.121783994
21	0x3d5378fd	0.051629055
22	0x3e41262a	0.18862215
23	0xbe3d5478	-0.18489254
24	0xbd49e350	-0.049289048
25	0x3d73d2d0	0.05952722
26	0xbbe33e13	-0.00693489
27	0x3c8f8558	0.017519638
28	0x3c8b658e	0.017016198
29	0xbe5fb089	-0.21844687
30	0xbe465f44	-0.19372278
31	0x3d41f45c	0.04735218
32	0xbe83a3e5	-0.2571098
33	0xbd8c7927	-0.068590455
34	0xbbacb31d	-0.0052703754
35	0xbea35b01	-0.31905368
36	0x3e67d855	0.22641118
37	0x3dd80300	0.10547447
38	0xbd85f88c	-0.06541547
39	0x3d296a1e	0.041360967
40	0x3e21cc1e	0.15800521
41	0x3e0fd249	0.14045061
42	0xbdc1b53e	-0.09458397
43	0xbe7d1a38	-0.24717033
44	0xbe359baf	-0.1773517
45	0xbd22d1fe	-0.039751045
46	0x3e164319	0.14674033
47	0x3e6bb57c	0.2301845
48	0xbb9ee871	-0.0048494865
49	0xbe5921c0	-0.21204281
50	0x3e04f7f9	0.12985219
51	0xbe54477d	-0.20730396
52	0xbe4730d5	-0.19452222
53	0x3e0a19bd	0.13486381
54	0xbdeb2371	-0.11481369
55	0xbe8c92ce	-0.27455753
56	0xbdfdb095	-0.12387196
57	0xbd24f16b	-0.040269297
58	0xbcbf67f4	-0.023364998
59	0xbcd4cb89	-0.02597596
60	0xbe58cdaa	-0.21172205
61	0xbe8a6e41	-0.27037242
62	0x3e1316c7	0.14364158
63	0xbe63906d	-0.22223063
64	0xbda6ccbc	-0.08144519
65	0x3db85ae2	0.090017095
66	0xbe6a2372	-0.22865084
67	0x3dae59cc	0.08513221
68	0x3dc9e0ee	0.09857355
69	0x3df37be5	0.118888654
70	0x3da19aae	0.07890831
71	0x3ea6047e	0.32425302
72	0xbe21978b	-0.15780465
73	0x3bbf1e5d	0.005832477
74	0xbe7b7d31	-0.24559475
75	0xbe3ab140	-0.18231678
76	0xbdd2b520	-0.10288453
77	0xbe2f70ce	-0.17132875
78	0x3ce96482	0.028490309
79	0x3e31695b	0.17325346
80	0x3d9aff5e	0.07568239
81	0x3e4438aa	0.1916224
82	0x3e91130a	0.28334838
83	0xbe73d885	-0.23813064
84	0xbd1e12cf	-0.038592156
85	0xbd2f62c5	-0.042818803
86	0xbdd6d452	-0.10489716
87	0xbd0904f6	-0.033451997
88	0x3cea63d1	0.02861205
89	0xbd756f88	-0.059920818
90	0xbd72518a	-0.059159793
91	0xbe1d720f	-0.15375541
92	0x3deb9a80	0.11504078
93	0x3cdaa4d1	0.026689919
94	0x3e3be723	0.1834989
95	0x3c04fbc0	0.0081166625
96	0x3ed20f5b	0.4102734
97	0x3e1e6f8d	0.15472241
98	0xbdafd814	-0.085861355
99	0x3e92fd81	0.28709033
100	0x3e6ba86d	0.23013468
101	0x3d9c078d	0.07618628
102	0xbcd30b1f	-0.025762139
103	0xbde5f295	-0.112279095
104	0xbe23ff73	-0.16015415
105	0x3dbf477b	0.09339806
106	0xbe0a15be	-0.13484856
107	0x3e0b3188	0.13593113
108	0x3dee3026	0.11630277
109	0x3e9ebbe8	0.31002736
110	0x3e0d9812	0.13827541
111	0xbdf660bd	-0.1203017
112	0xbd40b820	-0.047050595
113	0xbd6d676a	-0.05795995
114	0xbce2fa8b	-0.027707359
115	0xbe05dfc5	-0.13073643
116	0xbe2beba7	-0.16789113
117	0x3dcd8ffd	0.10037229
118	0x3b63c4f1	0.0034754837
119	0xbe7cea7f	-0.24698828
120	0x3da4be0c	0.08044061
121	0xbe5007dd	-0.203155
122	0xbe0968c8	-0.13418877
123	0x3e243b6e	0.16038296
124	0xbd59cec4	-0.053175703
125	0xbe041d61	-0.12901832
126	0x3e72af94	0.2369979
127	0xbe6d891d	-0.23196836
128	0xbe64bdb0	-0.22337985
129	0xbde7c5f7	-0.11317056
130	0xbe1466a4	-0.1449228
131	0x3df48f2c	0.1194137
132	0x3cc7147e	0.024301764
133	0xbdc83b71	-0.097769625
134	0xbe08f58e	-0.13374922
135	0xbe3d7597	-0.18501888
136	0xbe137985	-0.14401825
137	0x3d51283f	0.051063772
138	0xbdbfbd60	-0.09362292
139	0xbdbc3baa	-0.091910675
140	0xbcd1d6e5	-0.025615165
141	0x3e51c767	0.20486222
142	0x3e9a0757	0.30083725
143	0x3e1af913	0.15134077
144	0x3e06e1bc	0.13172048
145	0xbe12c9c2	-0.14334777
146	0xbdd35671	-0.10319222
147	0x3eaebe35	0.3412949
148	0x3e380db7	0.17973982
149	0xbda230d2	-0.07919468
150	0x3e26ddf3	0.16295604
151	0xbe3f118d	-0.18659039
152	0xbd61e114	-0.05514629
153	0xbd9e5129	-0.07730324
154	0x3d7997c2	0.060935743
155	0xbd5e4a46	-0.05427005
156	0xbe42b921	-0.19015934
157	0x3d2e32cc	0.042528912
158	0xbda049de	-0.07826589
159	0xbebadb7a	-0.36495572
160	0x3b7d577b	0.0038656879
161	0xbe991f2c	-0.29906595
162	0x3df26e85	0.11837486
163	0x3e2a0782	0.16604427
164	0x3e34ea91	0.17667605
165	0x3d1b9688	0.037985355
166	0xbd7d6442	-0.06186319
167	0x3dd18cc3	0.10231926
168	0x3d07bb5f	0.033137675
169	0x3e54f7e3	0.20797686
170	0x3e3a2079	0.1817645
171	0xbe48d21e	-0.19611403
172	0x3e392315	0.18079789
173	0x3cae1b1b	0.02125316
174	0xbd7ce196	-0.061738573
175	0xbcda6967	-0.026661588
176	0xbe145f3c	-0.14489454
177	0x3b94fcef	0.0045467536
178	0x3e72ef9f	0.2372422
179	0xbb46432d	-0.0030252442
180	0xbdbebc01	-0.09313203
181	0xbba1c545	-0.0049368464
182	0xbd9bc274	-0.07605448
183	0xbcf50781	-0.029910805
184	0xbda51d81	-0.08062268
185	0xbda70705	-0.08155636
186	0x3e3878ab	0.18014781
187	0x3e9bf5da	0.30461007
188	0x3ba1a086	0.004932466
189	0xbe395e31	-0.18102337
190	0x3e694e70	0.22783828
191	0xbcb65629	-0.022257881
192	0xbcc699bc	-0.024243228
193	0x3e3da0dd	0.18518396
194	0xbe133900	-0.14377213
195	0xbd035c90	-0.032070696
196	0x3e3357a3	0.175139
197	0xbdf9fb11	-0.1220609
198	0x3db35196	0.08755796
199	0xbb8de7d3	-0.004330614
200	0xbdea435d	-0.1143863
201	0x3e67d482	0.22639659
202	0x3dcf6a7f	0.101277344
203	0xbe07e82d	-0.13272162
204	0x3d4d266c	0.05008547
205	0x3e982c75	0.29721418
206	0xbd71c648	-0.059026986
207	0xbde0e0c6	-0.10980372
208	0x3e9f9b18	0.31173015
209	0xbd3f610b	-0.046723407
210	0xbe80fba8	-0.25191998
211	0xbcf89e53	-0.030348932
212	0x3e610a9d	0.21976705
213	0xbd2223f4	-0.03958507
214	0x3dc749f0	0.09730899
215	0xbe0b5b01	-0.13608934
216	0x3e7a48c0	0.24441814
217	0x3e16ef1b	0.14739649
218	0x3e6beb58	0.23038995
219	0xbe326f2c	-0.17425221
220	0x3d4479b5	0.04796763
221	0xba3755ed	-0.00069937
222	0x3db2c5e4	0.08729151
223	0x3e8018d8	0.25018954
224	0x3c81cc03	0.01584435
225	0x3d81601f	0.06317162
226	0xbe4ecddd	-0.20195718
227	0xbea075a8	-0.31339765
228	0x3e28c2b8	0.1648053
229	0x3dedfbc9	0.1162029
230	0x3da5165f	0.080609076
231	0x3d8cad93	0.06869044
232	0xbda3c336	-0.07996218
233	0xbd319fb9	-0.043365214
234	0xbb1a5a3c	-0.002355232
235	0x3d61e76d	0.055152345
236	0xbe4a7115	-0.197697
237	0xbe001ae8	-0.12510264
238	0xbc09da40	-0.008413851
239	0x3dba2a1f	0.09090065
240	0x3edbd170	0.42933226
241	0xbd60cc45	-0.054882307
242	0xbe14b956	-0.14523825
243	0x3e21b45e	0.15791461
244	0xbbf64c9c	-0.007516457
245	0x3e568ad3	0.20951395
246	0x3ce8f611	0.028437646
247	0xbd280613	-0.041021418
248	0x3e86b3dd	0.263091
249	0x3de5b4eb	0.11216148
250	0x3d7ad49a	0.06123791
251	0x3e5c7277	0.2152804
252	0x3e385b9a	0.18003693
253	0xbcc077a0	-0.023494542
254	0xbe615ab0	-0.22007251
255	0x3dd521ec	0.10406861

cnn_features.4.1.weight f4 [32]
0	0x3f21a64a	0.6314436
1	0x3f235d77	0.6381449
2	0x3eed0472	0.46292454
3	0x3efa71d1	0.4891496
4	0x3f0d0757	0.55089325
5	0x3f20d4c8	0.6282468
6	0x3f1df852	0.6170703
7	0x3f133a72	0.57511055
8	0x3eca6283	0.39528283
9	0x3f1ac40b	0.6045539
10	0x3ee6c3c0	0.4507122
11	0x3f25ac9d	0.6471651
12	0x3ed4f047	0.41589567
13	0x3eebe36b	0.46071944
14	0x3f167cd0	0.587842
15	0x3f10a5e2	0.5650312
16	0x3f0da6ce	0.5533265
17	0x3f257a78	0.6464
18	0x3f032e66	0.51242673
19	0x3f19780e	0.59948814
20	0x3f010283	0.5039446
21	0x3f3c1a89	0.7347799
22	0x3f00409b	0.5009858
23	0x3f10c9a9	0.5655771
24	0x3efd54d3	0.49478778
25	0x3efe269f	0.4963884
26	0x3ed3480a	0.412659
27	0x3ee9292c	0.45539224
28	0x3f1907b4	0.5977738
29	0x3f144d11	0.57930094
30	0x3f2a90f2	0.6662742
31	0x3f100c82	0.56269085

cnn_features.4.1.bias f4 [32]
0	0xbea2a0a3	-0.3176318
1	0xbdd64f93	-0.10464396
2	0xbd83387f	-0.0640726
3	0x3bacdf4c	0.0052756425
4	0x3b2bd74e	0.002622086
5	0xbe082d4c	-0.1329853
6	0x3e07d5c3	0.13265137
7	0xbe37fb50	-0.17966962
8	0xbe3cf6cb	-0.18453519
9	0x3d2f379a	0.042777635
10	0xbe84d03e	-0.25940126
11	0x3e20b792	0.15695027
12	0xbe05b26e	-0.13056347
13	0xbd36aaac	-0.04459636
14	0x3d29914c	0.04139833
15	0x3e0ce318	0.13758504
16	0xbe1dc932	-0.15408781
17	0xbd62ccd2	-0.055371113
18	0xbe385cfc	-0.1800422
19	0x3cff4eec	0.031165563
20	0xbe5d4b03	-0.21610646
21	0xbe86047f	-0.26175305
22	0xbe42dd42	-0.19029716
23	0xbeedba48	-0.46431184
24	0x3e84b6e8	0.25920796
25	0x3cd36993	0.025807178
26	0xbcd5c1e3	-0.026093429
27	0xbe94284a	-0.28936988
28	0x3c01c597	0.007920644
29	0xbea34f0b	-0.31896242
30	0x3cd41033	0.02588663
31	0x3d7cbf64	0.06170596

cnn_features.4.1.running_mean f4 [32]
0	0x3cb5ec7e	0.022207495
1	0x3c93e05f	0.018051324
2	0xbd9b6373	-0.07587328
3	0xbedb7c34	-0.42868197
4	0x3ce286c1	0.027652146
5	0xbc195c11	-0.009360329
6	0xbee42ca2	-0.44565302
7	0x3d0cd4f0	0.03438276
8	0xbe09fe81	-0.13475992
9	0xbc0b89dd	-0.008516756
10	0x3dc8c7bf	0.098037235
11	0x3e0a3371	0.13496186
12	0xbc2619a1	-0.010137946
13	0xbe4f5637	-0.20247732
14	0xbdb69b22	-0.08916308
15	0x3d209c96	0.039211832
16	0x3cf7c368	0.030244544
17	0xbedd7d30	-0.43259573
18	0x3e7c35ab	0.24629848
19	0x3ae3a6b6	0.0017368409
20	0x3c7f09b8	0.015566282
21	0x3cc838e9	0.0244412
22	0x3d15b436	0.036548816
23	0x3bd6d717	0.0065564024
24	0x3ea56d1a	0.323098
25	0xbd2f42d4	-0.04278834
26	0x3ca841f0	0.020539254
27	0x3e829478	0.25503898
28	0x3c3490d8	0.011020862
29	0x39eae22a	0.00044800463
30	0x3c97d63c	0.018534772
31	0xbc3266e5	-0.01088879

cnn_features.4.1.running_var f4 [32]
0	0x3bcb492a	0.00620379
1	0x3b98f0fb	0.004667399
2	0x3c282782	0.010263326
3	0x3e0ba912	0.13638714
4	0x3d7a5936	0.061120234
5	0x3bce5755	0.006297032
6	0x3e545b55	0.20737965
7	0x3bd395af	0.0064570527
8	0x3d01c75b	0.03168426
9	0x3c858f47	0.016303672
10	0x3c748b77	0.014925829
11	0x3d1f4757	0.038886394
12	0x3c284ab9	0.0102717215
13	0x3e0322e7	0.12806283
14	0x3c80e34f	0.01573339
15	0x3c2c6f36	0.010524562
16	0x3b898ec9	0.0041979295
17	0x3e19b62b	0.15010898
18	0x3da07cdd	0.07836316
19	0x3c87c27c	0.01657223
20	0x3b1804fe	0.0023196335
21	0x3d7e5b6a	0.062098898
22	0x3bc8679a	0.006115866
23	0x3c6ce55f	0.014458983
24	0x3d713808	0.058891326
25	0x3c89bfbc	0.016815059
26	0x3d3ea2e9	0.046542082
27	0x3da2214f	0.07916509
28	0x3ba656f1	0.005076282
29	0x3b2739bc	0.002551659
30	0x3d99acd8	0.075036705
31	0x3be2f6e7	0.0069264057

cnn_features.4.3.weight f4 [64, 32, 1, 1]
0	0x3e5c1bb8	0.21494949
1	0xbd8e459a	-0.06946869
2	0xbe78eedd	-0.24309869
3	0x3d00b619	0.03142366
4	0xbe43d077	-0.19122492
5	0xbd396c23	-0.045269143
6	0xbd29a19e	-0.041413896
7	0xbdfde4fb	-0.1239719
8	0x3d7dffca	0.062011518
9	0x3e29ce1e	0.16582534
10	0x3d81e7e4	0.06343058
11	0xbecf5627	-0.40495417
12	0xbd264ad5	-0.04059871
13	0x3c3ab932	0.011396693
14	0x3d59fd20	0.053219914
15	0xbe311b42	-0.17295554
16	0xbd37da85	-0.04488613
17	0x394c1c7a	0.00019465564
18	0x3c090501	0.008363009
19	0xbd20b656	-0.03923639
20	0xbe0580d9	-0.13037433
21	0xbd7da28c	-0.061922595
22	0xbd874ed2	-0.06606831
23	0xbdcfa149	-0.101381846
24	0xbdcea33f	-0.100897305
25	0x3cb38c4c	0.021917485
26	0xbe1222ee	-0.14271137
27	0x3d1e15df	0.038595077
28	0xbd93843a	-0.072029546
29	0xbd3ed664	-0.046591178
30	0xbe15b7bd	-0.14620872
31	0x3c4a802a	0.012359658
32	0x3c733db2	0.014846252
33	0xbc91cade	-0.01779693
34	0xbda898b1	-0.082322486
35	0xbc017987	-0.0079025095
36	0x3daf1d77	0.08550542
37	0x3e80f8d8	0.25189853
38	0x3e5da7b9	0.21646012
39	0x3cf014c3	0.029306775
40	0x3d68f22b	0.056871574
41	0xbd94ba01	-0.0726204
42	0x3e616d97	0.22014461
43	0x3dbf6dd2	0.093471184
44	0xbdd55555	-0.104166664
45	0x3db81795	0.08988873
46	0x3c504613	0.0127120195
47	0xbd92849b	-0.07154199
48	0xbd40d282	-0.047075756
49	0xbe1c4e0a	-0.15264145
50	0x3d0c14e9	0.03419963
51	0x3e54b73a	0.2077302
52	0x3dafaaf8	0.085775316
53	0xbe55e472	-0.20887926
54	0x3e052cd7	0.13005386
55	0xbdf08eff	-0.11746024
56	0x3e04508f	0.12921356
57	0xbdd19a01	-0.10234452
58	0x3e2a382d	0.16622992
59	0x3e49f3c1	0.19721891
60	0x3da10cb4	0.07863751
61	0x3de45fe3	0.111511014
62	0x3db192b7	0.08670562
63	0xbe811937	-0.2521455
64	0xbcdb9f77	-0.026809437
65	0xbe5156ea	-0.20443311
66	0xbdc858e2	-0.09782578
67	0xbc233f8a	-0.009963879
68	0x3e2dc08d	0.16967984
69	0x3d21f75f	0.039542552
70	0x3eb752fc	0.358055
71	0xbd10f95c	-0.035394058
72	0xbcb6cfa9	-0.022315817
73	0xbc739adf	-0.014868467
74	0xbea41257	-0.32045242
75	0xbd0e8f1f	-0.03480446
76	0xbc8be675	-0.017077664
77	0x3e1744ec	0.14772385
78	0xbdfe25f0	-0.1240958
79	0xbbbfa159	-0.0058480916
80	0xbd92b0c0	-0.07162619
81	0x3d526805	0.051368732
82	0x3e2bebbf	0.16789149
83	0x3dc822ca	0.097722605
84	0xbda29325	-0.07938222
85	0xbeac4b04	-0.33650982
86	0xbc965489	-0.018350856
87	0xbe0a4223	-0.13501792
88	0xbda82740	-0.08210611
89	0xbe9ee5d6	-0.31034726
90	0xbe9716b0	-0.29509497
91	0xba05a928	-0.00050987536
92	0x3e133d37	0.1437882
93	0xbdf06d4a	-0.11739595
94	0x3d270d86	0.04078438
95	0xbe4232e2	-0.18964723
96	0x3e24f9ca	0.16110912
97	0x3b1fc1f7	0.0024377087
98	0xbe39fcbf	-0.18162821
99	0xbd599cf3	-0.053128194
100	0xbd75c166	-0.059998892
101	0xbe83167c	-0.25603092
102	0x3d8d780f	0.06907665
103	0x3e489971	0.19589783
104	0x3e803ab0	0.25044775
105	0xbe801f24	-0.25023758
106	0xbcf71c56	-0.030164879
107	0xbe2bab61	-0.16764595
108	0xbe050d8b	-0.12993447
109	0xbdef52fb	-0.11685749
110	0x3d538f52	0.051650353
111	0x3e3e0824	0.18557793
112	0x3e254999	0.16141357
113	0x3bde0abc	0.006776182
114	0x3c88d0d9	0.016701149
115	0x3dae4cdf	0.08510756
116	0x3e25292f	0.16128992
117	0xbd908a5c	-0.0705764
118	0x3d847ec9	0.06469495
119	0xbe1c0249	-0.15235247
120	0x3e007778	0.12545574
121	0x3e0e9f60	0.13927984
122	0x3b02621b	0.0019894901
123	0x3ce9c0ca	0.028534312
124	0xbe0f1f33	-0.13976745
125	0xbc75e151	-0.015007333
126	0xbddd82e3	-0.1081598
127	0xbcf2d832	-0.029644106
128	0x3e348e74	0.17632467
129	0xbe778c0b	-0.24174516
130	0xbb130fd8	-0.0022439864
131	0xbcd93168	-0.026512817
132	0xbd4a5f7f	-0.04940748
133	0xbd87d201	-0.06631852
134	0xbd1067b5	-0.035255153
135	0xbc9fae25	-0.019492218
136	0x3c4bb58e	0.012433423
137	0xb82e75ec	-4.1594656e-05
138	0xbe54f2eb	-0.20795791
139	0x3e0f863b	0.14016049
140	0x3b6c646c	0.0036070598
141	0xbccb7c6e	-0.024839606
142	0x3df3b9a3	0.11900642
143	0x3de10c7a	0.10988708
144	0x3df9dce0	0.12200332
145	0xbe0c041d	-0.13673444
146	0xbcd566ee	-0.026050057
147	0x3e661ceb	0.22471969
148	0x3d39ff44	0.045409456
149	0xbde71143	-0.11282589
150	0xbe10ec5c	-0.14152664
151	0xbd962246	-0.07330756
152	0x3dacf608	0.08445364
153	0xbde15ce5	-0.11004046
154	0x3d351862	0.044212706
155	0xbcf0578f	-0.029338626
156	0x3d23f31d	0.040026773
157	0x3e593105	0.21210106
158	0x3e38158a	0.17976967
159	0xbd4dee8c	-0.050276324
160	0x3e14f3f0	0.1454618
161	0xb8a2b971	-7.759303e-05
162	0xbc956336	-0.018235784
163	0x3ced36b3	0.028956747
164	0xbe25ab76	-0.16178688
165	0x3d5b922a	0.05360619
166	0xbe3d04cc	-0.18458861
167	0xbe59d859	-0.21273936
168	0xbe255178	-0.16144359
169	0xbd6c0ecd	-0.057631303
170	0x3e5be322	0.21473363
171	0xbd48441d	-0.048893083
172	0xbd835223	-0.06412151
173	0xbe013422	-0.12617543
174	0x3ccd9718	0.025096461
175	0xbe2cf589	-0.16890539
176	0x3cf1937a	0.029489268
177	0xbdb3a5b6	-0.08771841
178	0xbde3b586	-0.11118607
179	0x3c94a45b	0.018144777
180	0x3cf263c1	0.029588582
181	0xbdee6652	-0.1164061
182	0x3c8b7c13	0.017026937
183	0x3d94e44c	0.07270107
184	0x3d089ef3	0.03335471
185	0x3dbe4355	0.09290186
186	0x3cd4f0a4	0.025993653
187	0xbd96b433	-0.07358589
188	0x3e9f2ad4	0.31087363
189	0xbdc57b1f	-0.09642624
190	0xbc6d0a59	-0.014467799
191	0x3dda6f71	0.10665787
192	0x3dc0226a	0.09381564
193	0xbe19f374	-0.15034276
194	0x3d569f63	0.052398097
195	0xbe7cafcc	-0.24676436
196	0x3ce87bf4	0.028379418
197	0x3d54b08d	0.051926184
198	0x3e358b48	0.17728913
199	0x3dc584eb	0.09644493
200	0x3de37e17	0.11108034
201	0x3b839e51	0.0040166755
202	0x3c30da34	0.010794211
203	0x3d05331e	0.032519452
204	0xbde175c3	-0.110087894
205	0x3dea734f	0.114477746
206	0xbe2992c6	-0.16559896
207	0x3ded6747	0.11591964
208	0xbd737307	-0.05943587
209	0x3e90ff47	0.2831976
210	0xbcadef49	-0.021232264
211	0x3da366b8	0.079785764
212	0xbe415df6	-0.188835
213	0x3d0a7996	0.03380736
214	0xbd3fffb8	-0.04687473
215	0xbd64c2be	-0.055849783
216	0xbd857c2a	-0.06517823
217	0x3e1ed19b	0.15509646
218	0xbd95a351	-0.07306541
219	0xbd981da9	-0.07427532
220	0x3e0cef7c	0.13763231
221	0x3c77b168	0.015117981
222	0xbe6667d9	-0.22500552
223	0xbe8ce2fb	-0.27516922
224	0x3de3f4a5	0.111306466
225	0xbde876ef	-0.1135081
226	0xbe48d42a	-0.19612184
227	0xbe2799ac	-0.16367215
228	0x3ea9dd77	0.33176777
229	0xbd577a97	-0.052607145
230	0x3d37e4cc	0.044895932
231	0xbcd6d789	-0.026225822
232	0xbe02309f	-0.1271386
233	0xbd089784	-0.03334762
234	0xbdc533ee	-0.096290454
235	0xbe6056ea	-0.21908155
236	0xbe2f0fd5	-0.17095883
237	0x3e01b6cd	0.12667389
238	0x3dcbbcc5	0.09948114
239	0xbcb4ce7c	-0.022071116
240	0xbdad22d0	-0.084539056
241	0x3d7c10ee	0.061539583
242	0x3d8d96c3	0.06913521
243	0x3e6c19f6	0.23056778
244	0x3a3f8e5e	0.0007307286
245	0xbdbffb32	-0.093740836
246	0x3c8ec355	0.017427126
247	0x3db56630	0.08857381
248	0x3dac71e0	0.084201574
249	0xbe314a7e	-0.17313573
250	0x3d577af4	0.05260749
251	0x3c81b6e7	0.015834285
252	0xbe0b6ead	-0.13616438
253	0x3b82818a	0.0039827274
254	0x3e36e448	0.1786052
255	0x3e387802	0.1801453

cnn_features.4.4.weight f4 [64]
0	0x3e358ba2	0.17729047
1	0x3f0a0ec8	0.53928804
2	0x3e8bb3b8	0.27285552
3	0x3ebf620a	0.37379485
4	0x3eee4d88	0.46543527
5	0x3f66c150	0.9013872
6	0x3ecf3a40	0.4047413
7	0x3ec14b3b	0.3775271
8	0x3eee4f50	0.46544886
9	0x3e2b22fa	0.16712561
10	0x3eade306	0.33962268
11	0x3f05dc6f	0.5228948
12	0x3ed1b3ef	0.4095759
13	0x3e485ba4	0.19566208
14	0x3f3519fa	0.7074276
15	0x3ec05fc5	0.37573066
16	0x3f192feb	0.5983874
17	0x3f20bcb4	0.6278794
18	0x3e11fb36	0.14255986
19	0x3e7980df	0.24365567
20	0x3f3c83ee	0.7363881
21	0x3e05a9bb	0.13053028
22	0x3f435e3b	0.7631566
23	0x3e4960d6	0.19665846
24	0x3ed43d89	0.41453198
25	0x3e5c13bd	0.21491905
26	0x3f75179a	0.9573914
27	0x3f3631d3	0.71169776
28	0x3f6dec27	0.92938465
29	0x3f352760	0.70763206
30	0x3f638e2a	0.888888
31	0x3f571d6a	0.8402926
32	0x3e40a0d8	0.18811357
33	0x3e7bbe89	0.24584402
34	0x3eea7084	0.45788968
35	0x3ea615ae	0.32438415
36	0x3f354220	0.70804024
37	0x3f1aab3b	0.60417527
38	0x3e3bfd94	0.18358451
39	0x3f4b3675	0.7937997
40	0x3f1b285c	0.6060846
41	0x3e173ef3	0.14770107
42	0x3e6ea18e	0.23303816
43	0x3e632983	0.22183804
44	0x3eccea16	0.40022343
45	0x3ea30bd7	0.3184497
46	0x3e44f19b	0.1923279
47	0x3f6dd5d4	0.929044
48	0x3edd5f89	0.4323695
49	0x3e4581e9	0.19287838
50	0x3f908728	1.1291246
51	0x3f107e06	0.56442297
52	0x3f218e56	0.6310781
53	0x3e0859a2	0.13315442
54	0x3f0aef86	0.54271734
55	0x3f069776	0.5257486
56	0x3f00a504	0.50251794
57	0x3ea55192	0.32288796
58	0x3ec9afc8	0.39391923
59	0x3f5704f1	0.83991915
60	0x3f04170e	0.5159768
61	0x3eefdfd4	0.46850455
62	0x3e8ae644	0.27128804
63	0x3f70f4e3	0.9412367

cnn_features.4.4.bias f4 [64]
0	0xbec3ed0b	-0.38266787
1	0xbdf723d7	-0.12067383
2	0xbeb72bc2	-0.35775572
3	0xbe69af90	-0.22820878
4	0xbe0dbfcb	-0.13842694
5	0x3d972f81	0.073821075
6	0xbe6b2561	-0.22963478
7	0xbe57604f	-0.21032833
8	0xbe11634b	-0.14198034
9	0xbeba3518	-0.36368632
10	0xbe7588f6	-0.23978028
11	0xbe2ac7f8	-0.16677845
12	0xbe442796	-0.19155726
13	0xbeaedf6e	-0.34154838
14	0xbd9d7895	-0.07689015
15	0xbe5f374d	-0.2179844
16	0x3d292aae	0.04130047
17	0xbdec2cc7	-0.11531978
18	0xbebb43c8	-0.3657515
19	0xbea46bb2	-0.32113415
20	0xbd5ad2af	-0.05342358
21	0xbed40282	-0.41408163
22	0x3a75c214	0.0009374928
23	0xbeb9a8e7	-0.36261675
24	0xbe57dfd0	-0.21081471
25	0xbea792cc	-0.32729185
26	0xbcfdd6e7	-0.030986262
27	0x3d8592bc	0.06522128
28	0xbd36da5b	-0.044641834
29	0x3d487e3a	0.048948504
30	0x3cc10db0	0.023566097
31	0x3cc3117f	0.023812054
32	0xbeb5bd84	-0.3549615
33	0xbe9ffd7e	-0.31248087
34	0xbe38429b	-0.17994158
35	0xbe8f7440	-0.2801838
36	0xbdb0df69	-0.08636362
37	0x3daadde9	0.08343107
38	0xbeb42511	-0.3518453
39	0x3bb34b49	0.005471621
40	0xbd9329e0	-0.071857214
41	0xbec4bf49	-0.3842719
42	0xbe9ba891	-0.30402043
43	0xbeae11c1	-0.3399792
44	0xbe61557c	-0.22005266
45	0xbe8e8697	-0.2783706
46	0xbea5beaa	-0.32372028
47	0x3ad20126	0.0016022071
48	0xbe40704a	-0.18792835
49	0xbeb8c5cd	-0.3608841
50	0xbcc4209c	-0.02394133
51	0xbe1213b7	-0.14265333
52	0xbd3d71f7	-0.046251263
53	0xbec4fdf2	-0.38474995
54	0xbe055a94	-0.13022834
55	0x3e04cfc4	0.12969881
56	0xbe2c971e	-0.16854522
57	0xbe87a630	-0.26493979
58	0xbe76c4dc	-0.24098533
59	0xbcd8208d	-0.026382709
60	0xbe183ccc	-0.14866942
61	0xbe200e7a	-0.15630522
62	0xbe865f4c	-0.2624458
63	0xbd5ce664	-0.053930655

cnn_features.4.4.running_mean f4 [64]
0	0xbea9ef8a	-0.33190566
1	0x3e3947a1	0.1809373
2	0xbe112bd5	-0.14176877
3	0xbc33c544	-0.010972325
4	0x3dc110d2	0.09427036
5	0xbdc1333a	-0.09433599
6	0xbc5f742d	-0.013638538
7	0x3d009d43	0.031399976
8	0x3e867558	0.262614
9	0x3e7e8a39	0.24857415
10	0x3e283ead	0.16430159
11	0xbd17cad6	-0.037058674
12	0x3df5e8e6	0.120073125
13	0xbeab71a2	-0.33485132
14	0x3da7c51a	0.08191891
15	0x3dff4426	0.1246417
16	0xbe18d352	-0.14924362
17	0xbdbc59cf	-0.09196817
18	0x3d2e7930	0.042596042
19	0xbead3afd	-0.33834067
20	0xbe27c230	-0.1638267
21	0x3d8edb0d	0.06975374
22	0xbdcbf675	-0.09959117
23	0xbd61f8d4	-0.05516894
24	0xbd1c4276	-0.03814932
25	0xbdff27b3	-0.12458744
26	0xbe6b1c0b	-0.22959916
27	0xbd2727f1	-0.040809575
28	0x3e8b54bb	0.27213082
29	0x3c8cf3fe	0.017206188
30	0xbe5501a0	-0.20801401
31	0xbd829c63	-0.06377485
32	0xbd579a6a	-0.052637495
33	0xbddb6e3f	-0.10714387
34	0xbdf40726	-0.11915426
35	0xbea208ab	-0.31647238
36	0xbdd40a95	-0.10353581
37	0xbea5b7d3	-0.3236681
38	0xbe9a6d66	-0.3016159
39	0x3df13752	0.1177813
40	0x3eb4f337	0.35341808
41	0x3eba95be	0.3644237
42	0x3ddbf69c	0.107403964
43	0xbe4fcebe	-0.2029371
44	0x3c67c8c5	0.014146988
45	0x3e00e4b0	0.12587237
46	0xbe2b7766	-0.16744766
47	0x3e264bb8	0.16239822
48	0xbabcc769	-0.001440269
49	0xbe52de0a	-0.20592514
50	0xbe15570c	-0.14583987
51	0x3e0339a9	0.12814964
52	0x3cd50b25	0.02600629
53	0xbcb83d85	-0.022490272
54	0xbab743ad	-0.0013981961
55	0x3c45ab9d	0.012064842
56	0x3b1dec93	0.0024097308
57	0xbe516994	-0.20450431
58	0xbd4703d1	-0.048587624
59	0x3e01add7	0.12663971
60	0xbcb406d5	-0.021975914
61	0xbd9de470	-0.077095866
62	0xbe57909f	-0.21051262
63	0xbe44aeb3	-0.19207267

cnn_features.4.4.running_var f4 [64]
0	0x3d951da7	0.07281046
1	0x3d1be7b6	0.038062774
2	0x3d9c9fc5	0.07647661
3	0x3da2a18d	0.079409696
4	0x3d993f91	0.074828275
5	0x3d16d7da	0.036826946
6	0x3d227a8c	0.03966765
7	0x3d299a70	0.04140705
8	0x3debcb5a	0.115133956
9	0x3db00f26	0.08596639
10	0x3d87402b	0.06604036
11	0x3d277507	0.04088309
12	0x3da07c0c	0.0783616
13	0x3dd07031	0.10177649
14	0x3dad0dd3	0.084499024
15	0x3d7c75e7	0.061635878
16	0x3d9f1772	0.07768144
17	0x3da77643	0.081768535
18	0x3d4ceec6	0.0500324
19	0x3e162fd5	0.14666684
20	0x3db89988	0.09013659
21	0x3d658da7	0.056043293
22	0x3d831c56	0.06401889
23	0x3e08bd13	0.13353376
24	0x3dc15cd1	0.094415314
25	0x3de7fb79	0.113272615
26	0x3d22c529	0.039738808
27	0x3d8fd3b5	0.07022802
28	0x3ddcd8cf	0.107835405
29	0x3d354432	0.04425449
30	0x3d5e3376	0.054248296
31	0x3d45e588	0.0483146
32	0x3dc10b49	0.094259806
33	0x3de7cfb9	0.11318917
34	0x3da1d27c	0.07901475
35	0x3d9acbf4	0.07558432
36	0x3d4e5616	0.050375067
37	0x3d8ca799	0.06867904
38	0x3ddb5331	0.10709227
39	0x3d8481af	0.06470048
40	0x3d738019	0.059448335
41	0x3d912910	0.0708791
42	0x3d8fe8e3	0.070268415
43	0x3ddfbbfa	0.109245256
44	0x3d417c3c	0.04723762
45	0x3d495073	0.049148988
46	0x3dae6e2a	0.08517106
47	0x3d983c8f	0.07433426
48	0x3d7168a2	0.058937676
49	0x3da106a6	0.07862596
50	0x3d967b39	0.073477216
51	0x3dd5f69c	0.10447428
52	0x3d3eaf75	0.046554048
53	0x3dbaefe5	0.091277875
54	0x3d92ea10	0.0717355
55	0x3d8c83a7	0.06861048
56	0x3db59de0	0.08868003
57	0x3def799f	0.11693119
58	0x3d358211	0.044313494
59	0x3d89ad2f	0.06722485
60	0x3d52ab2d	0.051432777
61	0x3d78ecdd	0.060772765
62	0x3d3f5555	0.04671224
63	0x3d6351a6	0.055497788

cnn_features.7.0.weight f4 [64, 1, 3, 3]
0	0xbe10e2a1	-0.14148952
1	0x3d93e4a0	0.07221341
2	0xbe0d0817	-0.13772617
3	0xbe7b3291	-0.24531008
4	0x3f0b8b44	0.5450938
5	0xbe03e7b6	-0.1288136
6	0xbe9cec74	-0.3064915
7	0xbbbf573f	-0.005839258
8	0xbbdf9f27	-0.0068243924
9	0xbe0e60e7	-0.13904153
10	0x3e096df5	0.13420852
11	0xbdf77778	-0.12083334
12	0x3e06cc62	0.13163903
13	0x3dda1948	0.10649353
14	0x3e2a503d	0.16632171
15	0xbd92b978	-0.071642816
16	0xbe3254ee	-0.1741521
17	0xbe3f7f71	-0.18700959
18	0x3df6d915	0.12053124
19	0x3e049ef9	0.12951268
20	0x3e4098cd	0.18808289
21	0x3e53718c	0.20648783
22	0x3e6ebb89	0.23313726
23	0x3ea5da71	0.3239322
24	0xbcf213fe	-0.029550549
25	0x3d11ecc5	0.03562619
26	0x3dda973b	0.10673376
27	0x3c8db65f	0.017298875
28	0x3de66577	0.11249822
29	0x3ddfac76	0.10921566
30	0x3cb2eff3	0.021842932
31	0x3d9d1e8c	0.07671842
32	0x3cbbfd5a	0.022947956
33	0xbdf2b0fd	-0.11850164
34	0xbeab48bc	-0.3345393
35	0xbe420991	-0.18948962
36	0xbe21dc4e	-0.15806696
37	0xbe6cf1b3	-0.23139076
38	0xbe47e406	-0.19520578
39	0xbe1a4262	-0.15064386
40	0xbde4a76a	-0.11164744
41	0xbe2e6f84	-0.17034727
42	0x3e068b09	0.13138975
43	0x3d83c42a	0.064339
44	0x3e0877eb	0.13326995
45	0xbe101add	-0.14072748
46	0xbdef9226	-0.116977975
47	0xbe18b2e1	-0.14911987
48	0xbe1240ba	-0.14282504
49	0x3d17fde7	0.037107375
50	0xbd09fcd6	-0.03368839
51	0xbdffff39	-0.12499852
52	0x3e3c9969	0.18417896
53	0x3e41250a	0.18861786
54	0x3e5438a9	0.20724739
55	0x3d86f3d8	0.06589478
56	0x3dcfa3a2	0.10138632
57	0x3e34b254	0.17646152
58	0x3d262a1f	0.040567514
59	0x3df175cd	0.11790047
60	0x3da94951	0.08265937
61	0x3cc29e2b	0.023757061
62	0x3e1c516f	0.1526544
63	0xbd71ee5f	-0.05906522
64	0xbe673f26	-0.22582683
65	0x3e5bd5b5	0.21468242
66	0x3e58fa81	0.2118931
67	0xbe01214d	-0.1261036
68	0xbe0bb531	-0.13643338
69	0x3db8d4c7	0.09024959
70	0xbe44da74	-0.19223958
71	0x3df076f6	0.1174144
72	0xbe3d8d26	-0.18510875
73	0xbe265799	-0.16244353
74	0xbe48cbd2	-0.19609001
75	0xbe6af840	-0.22946262
76	0xbe0e0fef	-0.13873266
77	0xbe857482	-0.2606545
78	0xbda97183	-0.08273604
79	0xbd87cbc5	-0.06630663
80	0xbe78382f	-0.24240182
81	0x3ea66339	0.32497576
82	0x3e645ea8	0.22301733
83	0x3e52e2c3	0.20594315
84	0xbde826bf	-0.11335515
85	0xbda3cb93	-0.07997813
86	0xbd802692	-0.06257357
87	0xbc3a6bc7	-0.011378235
88	0xbe078499	-0.13234176
89	0xbd8e1e8c	-0.0693942
90	0xbcf2d778	-0.02964376
91	0xbdfc163d	-0.12308929
92	0xbdb6249c	-0.088937014
93	0x3dea3f08	0.114378035
94	0x3de24d02	0.11049844
95	0x3dc92794	0.09822002
96	0x3e4357ba	0.19076434
97	0x3d806cad	0.06270728
98	0x3e4df9b2	0.20114782
99	0xbe93f6c1	-0.28899196
100	0xbe947e2b	-0.2900251
101	0xbd88e367	-0.066839986
102	0xbe1c17a7	-0.15243398
103	0xbe365222	-0.17804769
104	0xbd3753cb	-0.044757646
105	0x3d6c9209	0.057756457
106	0x3d92285d	0.07136605
107	0x3e33e8f0	0.17569327
108	0x3dc1518b	0.09439381
109	0x3d98b131	0.074556716
110	0x3e320200	0.17383575
111	0xbdbba51a	-0.0916235
112	0xbdad0771	-0.08448685
113	0xbc258b81	-0.010104061
114	0xbea1cfae	-0.3160376
115	0xbe27317c	-0.1632747
116	0xbe7b1572	-0.245199
117	0x3e8901eb	0.26759276
118	0x3e477c8a	0.19481102
119	0x3e0965d8	0.13417757
120	0x3e47475c	0.19460815
121	0x3e3e4f21	0.18584873
122	0xbdc52b05	-0.09627346
123	0xbe2ead34	-0.17058259
124	0xbe04ad1e	-0.12956664
125	0xbe41638b	-0.18885629
126	0xbde0acd3	-0.109704636
127	0x3b97403a	0.0046158107
128	0xbe2aa595	-0.16664727
129	0xbe3c04f8	-0.1836127
130	0xbe3505b0	-0.17677951
131	0xbe5a7ff8	-0.21337879
132	0x3e290dbf	0.1650915
133	0x3e4986d3	0.19680338
134	0x3dd24d19	0.102686115
135	0x3eb47560	0.352458
136	0x3e230477	0.15919672
137	0x3e73f50c	0.23823947
138	0x3d40a25a	0.04702983
139	0xbdb1e739	-0.0868668
140	0x3e09ca04	0.13455969
141	0x3df10c6f	0.1176995
142	0x3d81f3e3	0.06345346
143	0x3d069c71	0.032864038
144	0x3d15b44c	0.036548898
145	0x3dfc6ac4	0.123250514
146	0x3e6afc77	0.2294787
147	0x3dd6a112	0.104799405
148	0xbdbfe7d8	-0.093703926
149	0x3d877025	0.06613187
150	0x3e46cd5b	0.19414274
151	0x3e0c274c	0.13686866
152	0x3ea003df	0.31252953
153	0xbb1caeba	-0.0023907856
154	0x3d4fe9c7	0.050760057
155	0xbd5135f4	-0.051076844
156	0xbe93f8b9	-0.28900698
157	0xbe804b11	-0.2505727
158	0xbe8bf7ec	-0.27337587
159	0x3d851740	0.06498575
160	0x3dd6f26d	0.10495458
161	0x3d318f51	0.043349568
162	0x3e8605c7	0.26176283
163	0x3d9775a3	0.07395484
164	0x3ec987a6	0.39361304
165	0x3ac30b1e	0.0014880633
166	0xbe0fd72e	-0.14046928
167	0xbd40a758	-0.04703459
168	0x3db56402	0.088569656
169	0xbd150d0a	-0.03638939
170	0x3de7d8f8	0.113206804
171	0xbdc37d0f	-0.095453374
172	0xbda8ebfa	-0.08248134
173	0x3e6c3744	0.23067957
174	0x3d4a1732	0.049338527
175	0x3d3c75c2	0.04601074
176	0x3e9f3d3e	0.31101412
177	0xbd887775	-0.066634096
178	0xbc671674	-0.014104474
179	0xbc8452b6	-0.01615272
180	0xbd9a8871	-0.075455554
181	0xbd5219d7	-0.051294174
182	0xbdcac5c4	-0.09901002
183	0x3e71fe55	0.23632176
184	0x3e374674	0.1789797
185	0x3e854767	0.26031038
186	0xbbf4c6d1	-0.00746999
187	0x3d91a826	0.0711215
188	0x3cb0272c	0.021503054
189	0x3e1a9017	0.15094028
190	0x3ef37d72	0.47556645
191	0x3f313614	0.6922314
192	0x3db6eeed	0.0893229
193	0x3e32d9b9	0.17465867
194	0x3e564632	0.20925215
195	0xbcd8199c	-0.026379399
196	0x3e10afc1	0.14129545
197	0x3e2679a4	0.1625734
198	0x3e44484f	0.19168209
199	0x3dea5e97	0.11443823
200	0x3de71204	0.11282733
201	0x3e19db0c	0.15024966
202	0x3e193476	0.14961419
203	0x3e25cf86	0.16192445
204	0x3e64e4a7	0.22352849
205	0x3e1443be	0.14478967
206	0x3d6da456	0.05801805
207	0x3e1ef583	0.15523343
208	0xbd364654	-0.044500664
209	0xbd7b3522	-0.06132997
210	0xbda5718a	-0.080782965
211	0xbe0dffbc	-0.13867086
212	0xbd1ec894	-0.038765505
213	0x3ece606b	0.40307936
214	0x3ee20d2d	0.44150677
215	0x3eb42d94	0.35191023
216	0x3e45c59d	0.19313665
217	0x3e030468	0.1279465
218	0x3e27a7d6	0.16372618
219	0x3e29165c	0.16512436
220	0x3e095869	0.13412632
221	0x3e013698	0.12618482
222	0x3e3dcbcd	0.18534775
223	0x3e08a590	0.13344407
224	0x3dec46db	0.11536952
225	0x3e96070b	0.29302248
226	0xbe443078	-0.19159114
227	0x3e95dee9	0.2927163
228	0xbc9ee2c1	-0.019395234
229	0xbdc57b3c	-0.09642646
230	0xbd8a0707	-0.067396216
231	0xbd9afc37	-0.075676374
232	0x3bb9610a	0.00565732
233	0xbc8300ac	-0.015991531
234	0xbe539dce	-0.20665666
235	0x3e0b9705	0.13631828
236	0xbe429b6a	-0.19004598
237	0xbd8e334f	-0.0694338
238	0x3e06603c	0.13122648
239	0xbdcf7fc9	-0.10131795
240	0xbe4ca168	-0.19983447
241	0x3e19f884	0.15036207
242	0xbe46244c	-0.19349784
243	0xbdc80844	-0.097672015
244	0xbe3b43b4	-0.18287545
245	0xbeaa2522	-0.33231455
246	0x3da0021b	0.078129016
247	0x3d1bf98b	0.03807978
248	0xbc8f5cb7	-0.017500265
249	0x3e0a513e	0.13507554
250	0x3e263384	0.16230589
251	0x3d66bb8e	0.05633121
252	0xbeb9fd55	-0.3632609
253	0xbdbeeb68	-0.09322244
254	0xbde9c332	-0.11414184
255	0x3d81b261	0.06332851

cnn_features.7.1.weight f4 [64]
0	0x3f47ee08	0.7809758
1	0x3ef106e2	0.47075564
2	0x3ed82b8b	0.4222072
3	0x3f1d7ee9	0.61521775
4	0x3f10ddd2	0.5658847
5	0x3f23872d	0.63878137
6	0x3edfbaf3	0.43697318
7	0x3f15b9ec	0.5848682
8	0x3f0b050a	0.54304564
9	0x3efe16fa	0.49626905
10	0x3ed4d490	0.41568422
11	0x3ef0b1e5	0.47010723
12	0x3f10d156	0.5656942
13	0x3f129ceb	0.5727069
14	0x3f122b01	0.5709687
15	0x3ecc821b	0.39943013
16	0x3ec7bfcb	0.39013514
17	0x3ef94014	0.486817
18	0x3f0a66c4	0.5406306
19	0x3f1ee062	0.6206113
20	0x3f015bfe	0.50530994
21	0x3f68757b	0.9080426
22	0x3ec85b64	0.39132226
23	0x3edaa555	0.42704263
24	0x3ef31277	0.47475025
25	0x3f166c38	0.5875888
26	0x3f2b7576	0.66976106
27	0x3f009f61	0.5024319
28	0x3edcb90e	0.43109936
29	0x3ef27968	0.4735825
30	0x3f0db303	0.55351275
31	0x3f172fdb	0.59057397
32	0x3f027f27	0.5097527
33	0x3ee4217a	0.4455679
34	0x3eecc250	0.46242
35	0x3eec320e	0.4613194
36	0x3f08462b	0.5323207
37	0x3f2fa116	0.6860517
38	0x3f24ff1f	0.64451784
39	0x3ee4c45e	0.44681066
40	0x3ee6df30	0.45092154
41	0x3ef9e84d	0.48810044
42	0x3ecd74de	0.40128225
43	0x3ef4a716	0.47783726
44	0x3f011cb7	0.5043444
45	0x3f08eee3	0.5348951
46	0x3f1ae2ec	0.60502505
47	0x3f3582bb	0.70902604
48	0x3f279993	0.6546871
49	0x3f202d42	0.6256906
50	0x3efebb22	0.49752146
51	0x3ef213f2	0.47280842
52	0x3f024fd8	0.5090308
53	0x3f267add	0.65031224
54	0x3f1230fb	0.5710599
55	0x3f24cb60	0.64372826
56	0x3f296b74	0.66179585
57	0x3f096053	0.53662604
58	0x3f177eff	0.59178156
59	0x3eefe318	0.46852946
60	0x3eebc71e	0.46050352
61	0x3ef50c1f	0.4786081
62	0x3ef063ce	0.46951145
63	0x3f336e6a	0.70090353

cnn_features.7.1.bias f4 [64]
0	0xbe9aadfa	-0.3021086
1	0xbebdfa31	-0.37104943
2	0xbe8d7d8a	-0.2763484
3	0xbe8b9ec2	-0.2726956
4	0xbde4f042	-0.11178638
5	0xbdf50d8f	-0.11965477
6	0xbe79cc33	-0.24394302
7	0xbef4a9aa	-0.47785693
8	0xbd622cd4	-0.055218533
9	0xbe02990a	-0.12753692
10	0xbe411d69	-0.18858875
11	0xbc914a94	-0.017735757
12	0x3c084ed2	0.0083195735
13	0xbe8482c3	-0.25881013
14	0xbbb2112b	-0.0054341755
15	0xbea11ec8	-0.31468797
16	0xbdd78450	-0.105232835
17	0x3e0eeaed	0.13956805
18	0xbeba89ed	-0.36433354
19	0xbea2053d	-0.31644621
20	0xbe9fc093	-0.3120161
21	0xbe4c4923	-0.19949774
22	0xbe4600e1	-0.19336273
23	0xbea6e443	-0.32596025
24	0xbe7c715c	-0.24652618
25	0xbe86ffa1	-0.26366904
26	0xbe1bb927	-0.15207349
27	0xbd2c8afb	-0.04212473
28	0x3d7e47bd	0.062080134
29	0xbe46dce9	-0.19420208
30	0xbe85f928	-0.26166654
31	0xbd4fa907	-0.050698306
32	0xbec926b7	-0.3928735
33	0xbe9d08ab	-0.30670676
34	0xbd5bdecd	-0.053679276
35	0xbecfdd8a	-0.40598708
36	0xbdb9e79b	-0.09077378
37	0xbe20a6df	-0.15688656
38	0xbe8b84b3	-0.2724968
39	0xbdeadfa1	-0.11468435
40	0xbdf27477	-0.1183862
41	0xbdbe5279	-0.09293074
42	0xbe42ca83	-0.19022565
43	0xbebbee27	-0.36705133
44	0xbd758d58	-0.05994925
45	0x3d3a991c	0.045556173
46	0xbe731b24	-0.23740822
47	0xbb30a33c	-0.0026952764
48	0xbd8a4430	-0.06751287
49	0xbe91f58e	-0.28507656
50	0xbd871aea	-0.0659693
51	0x3ace557e	0.0015742031
52	0xbd7d13ca	-0.06178645
53	0xbef8d1a5	-0.48597446
54	0xbd131392	-0.035907336
55	0xbdb1cdcb	-0.0868183
56	0x3b23721c	0.002493984
57	0xbe9b9500	-0.30387115
58	0x3cb707f6	0.022342663
59	0xbc49802b	-0.012298624
60	0xbdd85cea	-0.10564597
61	0x3d42d6ca	0.04756812
62	0xbe15687a	-0.14590636
63	0xbc7d2b49	-0.0154522145

cnn_features.7.1.running_mean f4 [64]
0	0xb86cc30e	-5.6448444e-05
1	0xbcf8f40f	-0.030389814
2	0x3bd9d7e5	0.006648051
3	0xbcf03e41	-0.02932656
4	0xbe401ef8	-0.18761814
5	0xbe5319fd	-0.20615382
6	0x3e162b01	0.14664842
7	0xbc90e916	-0.017689269
8	0xbed59abd	-0.41719618
9	0x3af184a5	0.0018426372
10	0x3d68646b	0.05673639
11	0xbe261f07	-0.16222773
12	0xbdcababe	-0.098988995
13	0x3a1197e1	0.0005553943
14	0xbe2a6085	-0.16638382
15	0x3ddfb249	0.10922677
16	0x3edae152	0.4275003
17	0xbe4fe9ba	-0.20304003
18	0x3a1ca905	0.00059761136
19	0x3b369a7e	0.002786308
20	0x3e846a6f	0.25862452
21	0x3b7f488b	0.003895315
22	0x3f24ad45	0.6432689
23	0x3b13952f	0.002251934
24	0x3e2e5769	0.17025532
25	0xb98be85a	-0.0002668526
26	0xbeb7bb65	-0.35885158
27	0xbdb12f48	-0.08651596
28	0xbe1d1225	-0.15338953
29	0x3f27e637	0.65585655
30	0xbe247739	-0.16061105
31	0xbe478898	-0.194857
32	0x3b04c285	0.0020257544
33	0x3c31da8c	0.010855328
34	0xbe7c8a80	-0.24662209
35	0x3d51bd29	0.051205788
36	0xbe1b5144	-0.15167719
37	0xbe0bc137	-0.13647924
38	0x39cf36c6	0.00039522926
39	0xbe4b2a65	-0.19840391
40	0xbf029f98	-0.5102477
41	0x3ba4cf24	0.005029576
42	0x3d006c52	0.031353302
43	0x3c1288a1	0.008943708
44	0xbe1f18e3	-0.15536837
45	0xbde8512e	-0.11343609
46	0xbae17b8d	-0.0017202959
47	0xbe590544	-0.21193415
48	0xbd4bf9f2	-0.049798913
49	0x39dbcfb1	0.00041925677
50	0xbe4a04b5	-0.19728358
51	0xbe4f1cae	-0.20225784
52	0xbe36d213	-0.17853574
53	0x3a03a7de	0.00050222676
54	0xbe0eb5ef	-0.1393659
55	0xbe284a6a	-0.16434637
56	0xbce7e0bf	-0.02830541
57	0xbba45705	-0.0050152563
58	0xbe224145	-0.15845211
59	0xbeb9edab	-0.3631414
60	0xbe093041	-0.13397314
61	0xbdc4d81f	-0.09611534
62	0x3d3f533d	0.04671024
63	0xbe077edf	-0.13231991

cnn_features.7.1.running_var f4 [64]
0	0x3898b37a	7.281355e-05
1	0x3cc73449	0.024316924
2	0x39b95219	0.00035347117
3	0x3c324fdd	0.010883299
4	0x3db2ed1b	0.087366305
5	0x3deb2ffc	0.11483762
6	0x3c98b268	0.018639758
7	0x3c0e8dbd	0.008700785
8	0x3e923adb	0.28560528
9	0x3a148dfb	0.00056669087
10	0x3c5baabf	0.013407408
11	0x3d5eebd8	0.054424137
12	0x3d1bf26d	0.038072992
13	0x38339e28	4.282422e-05
14	0x3e01ca59	0.12674846
15	0x3cbdbbb6	0.023160797
16	0x3dcfa59b	0.101390086
17	0x3e968190	0.29395723
18	0x38eee4c7	0.000113913375
19	0x399ef0ba	0.00030315464
20	0x3d726f84	0.05918838
21	0x39fddf9f	0.0004842253
22	0x3e50130e	0.20319769
23	0x39c8cf3e	0.0003830138
24	0x3cba6ea2	0.022757832
25	0x39077282	0.00012917261
26	0x3ebc8400	0.36819458
27	0x3d5fda7a	0.054651715
28	0x3e58d6dc	0.21175712
29	0x3e25f61b	0.16207163
30	0x3e1dd5c9	0.15413584
31	0x3de2b77e	0.110701546
32	0x38fe8865	0.00012137069
33	0x3a5d67c5	0.0008445944
34	0x3dd7aa17	0.10530489
35	0x3b5f53fe	0.0034077163
36	0x3d5ea798	0.05435905
37	0x3d373c07	0.04473498
38	0x38145912	3.5368903e-05
39	0x3da76e33	0.08175316
40	0x3ea9362f	0.3304915
41	0x3a1ec983	0.0006057249
42	0x3bc1da87	0.005915943
43	0x3a12d62e	0.0005601373
44	0x3d6726eb	0.0564336
45	0x3d123786	0.035697483
46	0x396831ac	0.00022143748
47	0x3e6e5d13	0.23277692
48	0x3cb5cb14	0.022191562
49	0x37419701	1.1538855e-05
50	0x3e07ace8	0.13249552
51	0x3e026214	0.12732726
52	0x3e037778	0.12838542
53	0x37fa279d	2.9820769e-05
54	0x3d94c74d	0.07264576
55	0x3ddcf970	0.10789764
56	0x3c1a342a	0.009411851
57	0x3a81e83d	0.0009911131
58	0x3da38051	0.07983459
59	0x3e94a4d0	0.29031992
60	0x3d64519b	0.055741888
61	0x3d283d0b	0.04107384
62	0x3bab99c6	0.005236837
63	0x3deb0ef8	0.114774644
